…
    checkpoint_print: 200
    F_feature_layer: 34
    F_weights: 1.0
    F_lossfn_type: l1
    F_use_input_norm: True
    F_use_range_norm: False
    G_optimizer_betas: [0.9, 0.999]
    G_scheduler_restart_weights: 1
  ]
  opt_path: options/train_lft_psnr.json
  is_train: True
  find_unused_parameters: True
  use_static_graph: False
  dist: False
  num_gpu: 1
  rank: 0
  world_size: 1

24-04-11 16:16:01.395 : Number of train images: 165, iters: 83
24-04-11 16:16:02.019 : 
Networks name: get_model
Params number: 1163392
Net structure:
get_model(
  (pos_encoding): PositionEncoding()
  (conv_init0): Sequential(
    (0): Conv3d(1, 64, kernel_size=(1, 3, 3), stride=(1, 1, 1), padding=(0, 1, 1), bias=False)
  )
  (conv_init): Sequential(
    (0): Conv3d(64, 64, kernel_size=(1, 3, 3), stride=(1, 1, 1), padding=(0, 1, 1), bias=False)
    (1): LeakyReLU(negative_slope=0.2, inplace=True)
    (2): Conv3d(64, 64, kernel_size=(1, 3, 3), stride=(1, 1, 1), padding=(0, 1, 1), bias=False)
    (3): LeakyReLU(negative_slope=0.2, inplace=True)
    (4): Conv3d(64, 64, kernel_size=(1, 3, 3), stride=(1, 1, 1), padding=(0, 1, 1), bias=False)
    (5): LeakyReLU(negative_slope=0.2, inplace=True)
  )
  (altblock): Sequential(
    (0): AltFilter(
      (spa_trans): SpaTrans(
        (MLP): Linear(in_features=576, out_features=128, bias=False)
        (norm): LayerNorm((128,), eps=1e-05, elementwise_affine=True)
        (attention): MultiheadAttention(
          (out_proj): NonDynamicallyQuantizableLinear(in_features=128, out_features=128, bias=False)
        )
        (feed_forward): Sequential(
          (0): LayerNorm((128,), eps=1e-05, elementwise_affine=True)
          (1): Linear(in_features=128, out_features=256, bias=False)
          (2): ReLU(inplace=True)
          (3): Dropout(p=0.0, inplace=False)
          (4): Linear(in_features=256, out_features=128, bias=False)
          (5): Dropout(p=0.0, inplace=False)
        )
        (linear): Sequential(
          (0): Conv3d(128, 64, kernel_size=(1, 1, 1), stride=(1, 1, 1), bias=False)
        )
      )
      (ang_trans): AngTrans(
        (norm): LayerNorm((64,), eps=1e-05, elementwise_affine=True)
        (attention): MultiheadAttention(
          (out_proj): NonDynamicallyQuantizableLinear(in_features=64, out_features=64, bias=False)
        )
        (feed_forward): Sequential(
          (0): LayerNorm((64,), eps=1e-05, elementwise_affine=True)
          (1): Linear(in_features=64, out_features=128, bias=False)
          (2): ReLU(inplace=True)
          (3): Dropout(p=0.0, inplace=False)
          (4): Linear(in_features=128, out_features=64, bias=False)
          (5): Dropout(p=0.0, inplace=False)
        )
      )
    )
    (1): AltFilter(
      (spa_trans): SpaTrans(
        (MLP): Linear(in_features=576, out_features=128, bias=False)
        (norm): LayerNorm((128,), eps=1e-05, elementwise_affine=True)
        (attention): MultiheadAttention(
          (out_proj): NonDynamicallyQuantizableLinear(in_features=128, out_features=128, bias=False)
        )
        (feed_forward): Sequential(
          (0): LayerNorm((128,), eps=1e-05, elementwise_affine=True)
          (1): Linear(in_features=128, out_features=256, bias=False)
          (2): ReLU(inplace=True)
          (3): Dropout(p=0.0, inplace=False)
          (4): Linear(in_features=256, out_features=128, bias=False)
          (5): Dropout(p=0.0, inplace=False)
        )
        (linear): Sequential(
          (0): Conv3d(128, 64, kernel_size=(1, 1, 1), stride=(1, 1, 1), bias=False)
        )
      )
      (ang_trans): AngTrans(
        (norm): LayerNorm((64,), eps=1e-05, elementwise_affine=True)
        (attention): MultiheadAttention(
          (out_proj): NonDynamicallyQuantizableLinear(in_features=64, out_features=64, bias=False)
        )
        (feed_forward): Sequential(
          (0): LayerNorm((64,), eps=1e-05, elementwise_affine=True)
          (1): Linear(in_features=64, out_features=128, bias=False)
          (2): ReLU(inplace=True)
          (3): Dropout(p=0.0, inplace=False)
          (4): Linear(in_features=128, out_features=64, bias=False)
          (5): Dropout(p=0.0, inplace=False)
        )
      )
    )
    (2): AltFilter(
      (spa_trans): SpaTrans(
        (MLP): Linear(in_features=576, out_features=128, bias=False)
        (norm): LayerNorm((128,), eps=1e-05, elementwise_affine=True)
        (attention): MultiheadAttention(
          (out_proj): NonDynamicallyQuantizableLinear(in_features=128, out_features=128, bias=False)
        )
        (feed_forward): Sequential(
          (0): LayerNorm((128,), eps=1e-05, elementwise_affine=True)
          (1): Linear(in_features=128, out_features=256, bias=False)
          (2): ReLU(inplace=True)
          (3): Dropout(p=0.0, inplace=False)
          (4): Linear(in_features=256, out_features=128, bias=False)
          (5): Dropout(p=0.0, inplace=False)
        )
        (linear): Sequential(
          (0): Conv3d(128, 64, kernel_size=(1, 1, 1), stride=(1, 1, 1), bias=False)
        )
      )
      (ang_trans): AngTrans(
        (norm): LayerNorm((64,), eps=1e-05, elementwise_affine=True)
        (attention): MultiheadAttention(
          (out_proj): NonDynamicallyQuantizableLinear(in_features=64, out_features=64, bias=False)
        )
        (feed_forward): Sequential(
          (0): LayerNorm((64,), eps=1e-05, elementwise_affine=True)
          (1): Linear(in_features=64, out_features=128, bias=False)
          (2): ReLU(inplace=True)
          (3): Dropout(p=0.0, inplace=False)
          (4): Linear(in_features=128, out_features=64, bias=False)
          (5): Dropout(p=0.0, inplace=False)
        )
      )
    )
    (3): AltFilter(
      (spa_trans): SpaTrans(
        (MLP): Linear(in_features=576, out_features=128, bias=False)
        (norm): LayerNorm((128,), eps=1e-05, elementwise_affine=True)
        (attention): MultiheadAttention(
          (out_proj): NonDynamicallyQuantizableLinear(in_features=128, out_features=128, bias=False)
        )
        (feed_forward): Sequential(
          (0): LayerNorm((128,), eps=1e-05, elementwise_affine=True)
          (1): Linear(in_features=128, out_features=256, bias=False)
          (2): ReLU(inplace=True)
          (3): Dropout(p=0.0, inplace=False)
          (4): Linear(in_features=256, out_features=128, bias=False)
          (5): Dropout(p=0.0, inplace=False)
        )
        (linear): Sequential(
          (0): Conv3d(128, 64, kernel_size=(1, 1, 1), stride=(1, 1, 1), bias=False)
        )
      )
      (ang_trans): AngTrans(
        (norm): LayerNorm((64,), eps=1e-05, elementwise_affine=True)
        (attention): MultiheadAttention(
          (out_proj): NonDynamicallyQuantizableLinear(in_features=64, out_features=64, bias=False)
        )
        (feed_forward): Sequential(
          (0): LayerNorm((64,), eps=1e-05, elementwise_affine=True)
          (1): Linear(in_features=64, out_features=128, bias=False)
          (2): ReLU(inplace=True)
          (3): Dropout(p=0.0, inplace=False)
          (4): Linear(in_features=128, out_features=64, bias=False)
          (5): Dropout(p=0.0, inplace=False)
        )
      )
    )
  )
  (upsampling): Sequential(
    (0): Conv2d(64, 1024, kernel_size=(1, 1), stride=(1, 1), bias=False)
    (1): PixelShuffle(upscale_factor=4)
    (2): LeakyReLU(negative_slope=0.2)
    (3): Conv2d(64, 1, kernel_size=(3, 3), stride=(1, 1), padding=(1, 1), bias=False)
  )
)

24-04-11 16:16:02.077 : 
 |  mean  |  min   |  max   |  std   || shape               
 |  0.001 | -0.020 |  0.020 |  0.012 | torch.Size([64, 1, 1, 3, 3]) || conv_init0.0.weight
 | -0.000 | -0.014 |  0.014 |  0.008 | torch.Size([64, 64, 1, 3, 3]) || conv_init.0.weight
 | -0.000 | -0.014 |  0.014 |  0.008 | torch.Size([64, 64, 1, 3, 3]) || conv_init.2.weight
…
