…
    D_param_strict: True
    E_param_strict: True
    checkpoint_test: 5000
    checkpoint_save: 5000
    checkpoint_print: 200
    G_optimizer_betas: [0.9, 0.999]
    G_scheduler_restart_weights: 1
  ]
  opt_path: options/train_lft_gan.json
  is_train: True
  find_unused_parameters: True
  use_static_graph: False
  dist: False
  num_gpu: 1
  rank: 0
  world_size: 1

24-04-08 09:22:20.867 : Number of train images: 165, iters: 83
24-04-08 09:22:25.065 : 
Networks name: get_model
Params number: 1163392
Net structure:
get_model(
  (pos_encoding): PositionEncoding()
  (conv_init0): Sequential(
    (0): Conv3d(1, 64, kernel_size=(1, 3, 3), stride=(1, 1, 1), padding=(0, 1, 1), bias=False)
  )
  (conv_init): Sequential(
    (0): Conv3d(64, 64, kernel_size=(1, 3, 3), stride=(1, 1, 1), padding=(0, 1, 1), bias=False)
    (1): LeakyReLU(negative_slope=0.2, inplace=True)
    (2): Conv3d(64, 64, kernel_size=(1, 3, 3), stride=(1, 1, 1), padding=(0, 1, 1), bias=False)
    (3): LeakyReLU(negative_slope=0.2, inplace=True)
    (4): Conv3d(64, 64, kernel_size=(1, 3, 3), stride=(1, 1, 1), padding=(0, 1, 1), bias=False)
    (5): LeakyReLU(negative_slope=0.2, inplace=True)
  )
  (altblock): Sequential(
    (0): AltFilter(
      (spa_trans): SpaTrans(
        (MLP): Linear(in_features=576, out_features=128, bias=False)
        (norm): LayerNorm((128,), eps=1e-05, elementwise_affine=True)
        (attention): MultiheadAttention(
          (out_proj): NonDynamicallyQuantizableLinear(in_features=128, out_features=128, bias=False)
        )
        (feed_forward): Sequential(
          (0): LayerNorm((128,), eps=1e-05, elementwise_affine=True)
          (1): Linear(in_features=128, out_features=256, bias=False)
          (2): ReLU(inplace=True)
          (3): Dropout(p=0.0, inplace=False)
          (4): Linear(in_features=256, out_features=128, bias=False)
          (5): Dropout(p=0.0, inplace=False)
        )
        (linear): Sequential(
          (0): Conv3d(128, 64, kernel_size=(1, 1, 1), stride=(1, 1, 1), bias=False)
        )
      )
      (ang_trans): AngTrans(
        (norm): LayerNorm((64,), eps=1e-05, elementwise_affine=True)
        (attention): MultiheadAttention(
          (out_proj): NonDynamicallyQuantizableLinear(in_features=64, out_features=64, bias=False)
        )
        (feed_forward): Sequential(
          (0): LayerNorm((64,), eps=1e-05, elementwise_affine=True)
          (1): Linear(in_features=64, out_features=128, bias=False)
          (2): ReLU(inplace=True)
          (3): Dropout(p=0.0, inplace=False)
          (4): Linear(in_features=128, out_features=64, bias=False)
          (5): Dropout(p=0.0, inplace=False)
        )
      )
    )
    (1): AltFilter(
      (spa_trans): SpaTrans(
        (MLP): Linear(in_features=576, out_features=128, bias=False)
        (norm): LayerNorm((128,), eps=1e-05, elementwise_affine=True)
        (attention): MultiheadAttention(
          (out_proj): NonDynamicallyQuantizableLinear(in_features=128, out_features=128, bias=False)
        )
        (feed_forward): Sequential(
          (0): LayerNorm((128,), eps=1e-05, elementwise_affine=True)
          (1): Linear(in_features=128, out_features=256, bias=False)
          (2): ReLU(inplace=True)
          (3): Dropout(p=0.0, inplace=False)
          (4): Linear(in_features=256, out_features=128, bias=False)
          (5): Dropout(p=0.0, inplace=False)
        )
        (linear): Sequential(
          (0): Conv3d(128, 64, kernel_size=(1, 1, 1), stride=(1, 1, 1), bias=False)
        )
      )
      (ang_trans): AngTrans(
        (norm): LayerNorm((64,), eps=1e-05, elementwise_affine=True)
        (attention): MultiheadAttention(
          (out_proj): NonDynamicallyQuantizableLinear(in_features=64, out_features=64, bias=False)
        )
        (feed_forward): Sequential(
          (0): LayerNorm((64,), eps=1e-05, elementwise_affine=True)
          (1): Linear(in_features=64, out_features=128, bias=False)
          (2): ReLU(inplace=True)
          (3): Dropout(p=0.0, inplace=False)
          (4): Linear(in_features=128, out_features=64, bias=False)
          (5): Dropout(p=0.0, inplace=False)
        )
      )
    )
    (2): AltFilter(
      (spa_trans): SpaTrans(
        (MLP): Linear(in_features=576, out_features=128, bias=False)
        (norm): LayerNorm((128,), eps=1e-05, elementwise_affine=True)
        (attention): MultiheadAttention(
          (out_proj): NonDynamicallyQuantizableLinear(in_features=128, out_features=128, bias=False)
        )
        (feed_forward): Sequential(
          (0): LayerNorm((128,), eps=1e-05, elementwise_affine=True)
          (1): Linear(in_features=128, out_features=256, bias=False)
          (2): ReLU(inplace=True)
          (3): Dropout(p=0.0, inplace=False)
          (4): Linear(in_features=256, out_features=128, bias=False)
          (5): Dropout(p=0.0, inplace=False)
        )
        (linear): Sequential(
          (0): Conv3d(128, 64, kernel_size=(1, 1, 1), stride=(1, 1, 1), bias=False)
        )
      )
      (ang_trans): AngTrans(
        (norm): LayerNorm((64,), eps=1e-05, elementwise_affine=True)
        (attention): MultiheadAttention(
          (out_proj): NonDynamicallyQuantizableLinear(in_features=64, out_features=64, bias=False)
        )
        (feed_forward): Sequential(
          (0): LayerNorm((64,), eps=1e-05, elementwise_affine=True)
          (1): Linear(in_features=64, out_features=128, bias=False)
          (2): ReLU(inplace=True)
          (3): Dropout(p=0.0, inplace=False)
          (4): Linear(in_features=128, out_features=64, bias=False)
          (5): Dropout(p=0.0, inplace=False)
        )
      )
    )
    (3): AltFilter(
      (spa_trans): SpaTrans(
        (MLP): Linear(in_features=576, out_features=128, bias=False)
        (norm): LayerNorm((128,), eps=1e-05, elementwise_affine=True)
        (attention): MultiheadAttention(
          (out_proj): NonDynamicallyQuantizableLinear(in_features=128, out_features=128, bias=False)
        )
        (feed_forward): Sequential(
          (0): LayerNorm((128,), eps=1e-05, elementwise_affine=True)
          (1): Linear(in_features=128, out_features=256, bias=False)
          (2): ReLU(inplace=True)
          (3): Dropout(p=0.0, inplace=False)
          (4): Linear(in_features=256, out_features=128, bias=False)
          (5): Dropout(p=0.0, inplace=False)
        )
        (linear): Sequential(
          (0): Conv3d(128, 64, kernel_size=(1, 1, 1), stride=(1, 1, 1), bias=False)
        )
      )
      (ang_trans): AngTrans(
        (norm): LayerNorm((64,), eps=1e-05, elementwise_affine=True)
        (attention): MultiheadAttention(
          (out_proj): NonDynamicallyQuantizableLinear(in_features=64, out_features=64, bias=False)
        )
        (feed_forward): Sequential(
          (0): LayerNorm((64,), eps=1e-05, elementwise_affine=True)
          (1): Linear(in_features=64, out_features=128, bias=False)
          (2): ReLU(inplace=True)
          (3): Dropout(p=0.0, inplace=False)
          (4): Linear(in_features=128, out_features=64, bias=False)
          (5): Dropout(p=0.0, inplace=False)
        )
      )
    )
  )
  (upsampling): Sequential(
    (0): Conv2d(64, 1024, kernel_size=(1, 1), stride=(1, 1), bias=False)
    (1): PixelShuffle(upscale_factor=4)
    (2): LeakyReLU(negative_slope=0.2)
    (3): Conv2d(64, 1, kernel_size=(3, 3), stride=(1, 1), padding=(1, 1), bias=False)
  )
)

Networks name: Discriminator_VGG_192
Params number: 20699401
Net structure:
Discriminator_VGG_192(
  (features): Sequential(
    (0): Conv2d(1, 64, kernel_size=(3, 3), stride=(1, 1), padding=(1, 1))
    (1): Conv2d(64, 64, kernel_size=(4, 4), stride=(2, 2), padding=(1, 1))
    (2): BatchNorm2d(64, eps=0.0001, momentum=0.9, affine=True, track_running_stats=True)
    (3): LeakyReLU(negative_slope=0.2, inplace=True)
    (4): Conv2d(64, 128, kernel_size=(3, 3), stride=(1, 1), padding=(1, 1))
    (5): BatchNorm2d(128, eps=0.0001, momentum=0.9, affine=True, track_running_stats=True)
    (6): LeakyReLU(negative_slope=0.2, inplace=True)
    (7): Conv2d(128, 128, kernel_size=(4, 4), stride=(2, 2), padding=(1, 1))
    (8): BatchNorm2d(128, eps=0.0001, momentum=0.9, affine=True, track_running_stats=True)
    (9): LeakyReLU(negative_slope=0.2, inplace=True)
    (10): Conv2d(128, 256, kernel_size=(3, 3), stride=(1, 1), padding=(1, 1))
    (11): BatchNorm2d(256, eps=0.0001, momentum=0.9, affine=True, track_running_stats=True)
    (12): LeakyReLU(negative_slope=0.2, inplace=True)
    (13): Conv2d(256, 256, kernel_size=(4, 4), stride=(2, 2), padding=(1, 1))
    (14): BatchNorm2d(256, eps=0.0001, momentum=0.9, affine=True, track_running_stats=True)
    (15): LeakyReLU(negative_slope=0.2, inplace=True)
    (16): Conv2d(256, 512, kernel_size=(3, 3), stride=(1, 1), padding=(1, 1))
    (17): BatchNorm2d(512, eps=0.0001, momentum=0.9, affine=True, track_running_stats=True)
    (18): LeakyReLU(negative_slope=0.2, inplace=True)
    (19): Conv2d(512, 512, kernel_size=(4, 4), stride=(2, 2), padding=(1, 1))
    (20): BatchNorm2d(512, eps=0.0001, momentum=0.9, affine=True, track_running_stats=True)
    (21): LeakyReLU(negative_slope=0.2, inplace=True)
    (22): Conv2d(512, 512, kernel_size=(3, 3), stride=(1, 1), padding=(1, 1))
    (23): BatchNorm2d(512, eps=0.0001, momentum=0.9, affine=True, track_running_stats=True)
    (24): LeakyReLU(negative_slope=0.2, inplace=True)
    (25): Conv2d(512, 512, kernel_size=(4, 4), stride=(2, 2), padding=(1, 1))
    (26): BatchNorm2d(512, eps=0.0001, momentum=0.9, affine=True, track_running_stats=True)
    (27): LeakyReLU(negative_slope=0.2, inplace=True)
    (28): Conv2d(512, 512, kernel_size=(3, 3), stride=(1, 1), padding=(1, 1))
    (29): BatchNorm2d(512, eps=0.0001, momentum=0.9, affine=True, track_running_stats=True)
    (30): LeakyReLU(negative_slope=0.2, inplace=True)
    (31): Conv2d(512, 512, kernel_size=(4, 4), stride=(2, 2), padding=(1, 1))
    (32): BatchNorm2d(512, eps=0.0001, momentum=0.9, affine=True, track_running_stats=True)
    (33): LeakyReLU(negative_slope=0.2, inplace=True)
  )
  (classifier): Sequential(
    (0): Linear(in_features=4608, out_features=100, bias=True)
    (1): LeakyReLU(negative_slope=0.2, inplace=True)
    (2): Linear(in_features=100, out_features=1, bias=True)
  )
)

24-04-08 09:22:25.137 : 
 |  mean  |  min   |  max   |  std   || shape               
 | -0.001 | -0.020 |  0.020 |  0.011 | torch.Size([64, 1, 1, 3, 3]) || conv_init0.0.weight
 |  0.000 | -0.014 |  0.014 |  0.008 | torch.Size([64, 64, 1, 3, 3]) || conv_init.0.weight
 |  0.000 | -0.014 |  0.014 |  0.008 | torch.Size([64, 64, 1, 3, 3]) || conv_init.2.weight
…
    D_param_strict: True
    E_param_strict: True
    checkpoint_test: 5000
    checkpoint_save: 5000
    checkpoint_print: 200
    G_optimizer_betas: [0.9, 0.999]
    G_scheduler_restart_weights: 1
  ]
  opt_path: options/train_lft_gan.json
  is_train: True
  find_unused_parameters: True
  use_static_graph: False
  dist: False
  num_gpu: 1
  rank: 0
  world_size: 1

24-04-08 09:23:44.330 : Number of train images: 165, iters: 83
24-04-08 09:23:45.949 : 
Networks name: get_model
Params number: 1163392
Net structure:
get_model(
  (pos_encoding): PositionEncoding()
  (conv_init0): Sequential(
    (0): Conv3d(1, 64, kernel_size=(1, 3, 3), stride=(1, 1, 1), padding=(0, 1, 1), bias=False)
  )
  (conv_init): Sequential(
    (0): Conv3d(64, 64, kernel_size=(1, 3, 3), stride=(1, 1, 1), padding=(0, 1, 1), bias=False)
    (1): LeakyReLU(negative_slope=0.2, inplace=True)
    (2): Conv3d(64, 64, kernel_size=(1, 3, 3), stride=(1, 1, 1), padding=(0, 1, 1), bias=False)
    (3): LeakyReLU(negative_slope=0.2, inplace=True)
    (4): Conv3d(64, 64, kernel_size=(1, 3, 3), stride=(1, 1, 1), padding=(0, 1, 1), bias=False)
    (5): LeakyReLU(negative_slope=0.2, inplace=True)
  )
  (altblock): Sequential(
    (0): AltFilter(
      (spa_trans): SpaTrans(
        (MLP): Linear(in_features=576, out_features=128, bias=False)
        (norm): LayerNorm((128,), eps=1e-05, elementwise_affine=True)
        (attention): MultiheadAttention(
          (out_proj): NonDynamicallyQuantizableLinear(in_features=128, out_features=128, bias=False)
        )
        (feed_forward): Sequential(
          (0): LayerNorm((128,), eps=1e-05, elementwise_affine=True)
          (1): Linear(in_features=128, out_features=256, bias=False)
          (2): ReLU(inplace=True)
          (3): Dropout(p=0.0, inplace=False)
          (4): Linear(in_features=256, out_features=128, bias=False)
          (5): Dropout(p=0.0, inplace=False)
        )
        (linear): Sequential(
          (0): Conv3d(128, 64, kernel_size=(1, 1, 1), stride=(1, 1, 1), bias=False)
        )
      )
      (ang_trans): AngTrans(
        (norm): LayerNorm((64,), eps=1e-05, elementwise_affine=True)
        (attention): MultiheadAttention(
          (out_proj): NonDynamicallyQuantizableLinear(in_features=64, out_features=64, bias=False)
        )
        (feed_forward): Sequential(
          (0): LayerNorm((64,), eps=1e-05, elementwise_affine=True)
          (1): Linear(in_features=64, out_features=128, bias=False)
          (2): ReLU(inplace=True)
          (3): Dropout(p=0.0, inplace=False)
          (4): Linear(in_features=128, out_features=64, bias=False)
          (5): Dropout(p=0.0, inplace=False)
        )
      )
    )
    (1): AltFilter(
      (spa_trans): SpaTrans(
        (MLP): Linear(in_features=576, out_features=128, bias=False)
        (norm): LayerNorm((128,), eps=1e-05, elementwise_affine=True)
        (attention): MultiheadAttention(
          (out_proj): NonDynamicallyQuantizableLinear(in_features=128, out_features=128, bias=False)
        )
        (feed_forward): Sequential(
          (0): LayerNorm((128,), eps=1e-05, elementwise_affine=True)
          (1): Linear(in_features=128, out_features=256, bias=False)
          (2): ReLU(inplace=True)
          (3): Dropout(p=0.0, inplace=False)
          (4): Linear(in_features=256, out_features=128, bias=False)
          (5): Dropout(p=0.0, inplace=False)
        )
        (linear): Sequential(
          (0): Conv3d(128, 64, kernel_size=(1, 1, 1), stride=(1, 1, 1), bias=False)
        )
      )
      (ang_trans): AngTrans(
        (norm): LayerNorm((64,), eps=1e-05, elementwise_affine=True)
        (attention): MultiheadAttention(
          (out_proj): NonDynamicallyQuantizableLinear(in_features=64, out_features=64, bias=False)
        )
        (feed_forward): Sequential(
          (0): LayerNorm((64,), eps=1e-05, elementwise_affine=True)
          (1): Linear(in_features=64, out_features=128, bias=False)
          (2): ReLU(inplace=True)
          (3): Dropout(p=0.0, inplace=False)
          (4): Linear(in_features=128, out_features=64, bias=False)
          (5): Dropout(p=0.0, inplace=False)
        )
      )
    )
    (2): AltFilter(
      (spa_trans): SpaTrans(
        (MLP): Linear(in_features=576, out_features=128, bias=False)
        (norm): LayerNorm((128,), eps=1e-05, elementwise_affine=True)
        (attention): MultiheadAttention(
          (out_proj): NonDynamicallyQuantizableLinear(in_features=128, out_features=128, bias=False)
        )
        (feed_forward): Sequential(
          (0): LayerNorm((128,), eps=1e-05, elementwise_affine=True)
          (1): Linear(in_features=128, out_features=256, bias=False)
          (2): ReLU(inplace=True)
          (3): Dropout(p=0.0, inplace=False)
          (4): Linear(in_features=256, out_features=128, bias=False)
          (5): Dropout(p=0.0, inplace=False)
        )
        (linear): Sequential(
          (0): Conv3d(128, 64, kernel_size=(1, 1, 1), stride=(1, 1, 1), bias=False)
        )
      )
      (ang_trans): AngTrans(
        (norm): LayerNorm((64,), eps=1e-05, elementwise_affine=True)
        (attention): MultiheadAttention(
          (out_proj): NonDynamicallyQuantizableLinear(in_features=64, out_features=64, bias=False)
        )
        (feed_forward): Sequential(
          (0): LayerNorm((64,), eps=1e-05, elementwise_affine=True)
          (1): Linear(in_features=64, out_features=128, bias=False)
          (2): ReLU(inplace=True)
          (3): Dropout(p=0.0, inplace=False)
          (4): Linear(in_features=128, out_features=64, bias=False)
          (5): Dropout(p=0.0, inplace=False)
        )
      )
    )
    (3): AltFilter(
      (spa_trans): SpaTrans(
        (MLP): Linear(in_features=576, out_features=128, bias=False)
        (norm): LayerNorm((128,), eps=1e-05, elementwise_affine=True)
        (attention): MultiheadAttention(
          (out_proj): NonDynamicallyQuantizableLinear(in_features=128, out_features=128, bias=False)
        )
        (feed_forward): Sequential(
          (0): LayerNorm((128,), eps=1e-05, elementwise_affine=True)
          (1): Linear(in_features=128, out_features=256, bias=False)
          (2): ReLU(inplace=True)
          (3): Dropout(p=0.0, inplace=False)
          (4): Linear(in_features=256, out_features=128, bias=False)
          (5): Dropout(p=0.0, inplace=False)
        )
        (linear): Sequential(
          (0): Conv3d(128, 64, kernel_size=(1, 1, 1), stride=(1, 1, 1), bias=False)
        )
      )
      (ang_trans): AngTrans(
        (norm): LayerNorm((64,), eps=1e-05, elementwise_affine=True)
        (attention): MultiheadAttention(
          (out_proj): NonDynamicallyQuantizableLinear(in_features=64, out_features=64, bias=False)
        )
        (feed_forward): Sequential(
          (0): LayerNorm((64,), eps=1e-05, elementwise_affine=True)
          (1): Linear(in_features=64, out_features=128, bias=False)
          (2): ReLU(inplace=True)
          (3): Dropout(p=0.0, inplace=False)
          (4): Linear(in_features=128, out_features=64, bias=False)
          (5): Dropout(p=0.0, inplace=False)
        )
      )
    )
  )
  (upsampling): Sequential(
    (0): Conv2d(64, 1024, kernel_size=(1, 1), stride=(1, 1), bias=False)
    (1): PixelShuffle(upscale_factor=4)
    (2): LeakyReLU(negative_slope=0.2)
    (3): Conv2d(64, 1, kernel_size=(3, 3), stride=(1, 1), padding=(1, 1), bias=False)
  )
)

Networks name: Discriminator_VGG_128
Params number: 14501129
Net structure:
Discriminator_VGG_128(
  (features): Sequential(
    (0): Conv2d(1, 64, kernel_size=(3, 3), stride=(1, 1), padding=(1, 1))
    (1): Conv2d(64, 64, kernel_size=(4, 4), stride=(2, 2), padding=(1, 1))
    (2): BatchNorm2d(64, eps=0.0001, momentum=0.9, affine=True, track_running_stats=True)
    (3): LeakyReLU(negative_slope=0.2, inplace=True)
    (4): Conv2d(64, 128, kernel_size=(3, 3), stride=(1, 1), padding=(1, 1))
    (5): BatchNorm2d(128, eps=0.0001, momentum=0.9, affine=True, track_running_stats=True)
    (6): LeakyReLU(negative_slope=0.2, inplace=True)
    (7): Conv2d(128, 128, kernel_size=(4, 4), stride=(2, 2), padding=(1, 1))
    (8): BatchNorm2d(128, eps=0.0001, momentum=0.9, affine=True, track_running_stats=True)
    (9): LeakyReLU(negative_slope=0.2, inplace=True)
    (10): Conv2d(128, 256, kernel_size=(3, 3), stride=(1, 1), padding=(1, 1))
    (11): BatchNorm2d(256, eps=0.0001, momentum=0.9, affine=True, track_running_stats=True)
    (12): LeakyReLU(negative_slope=0.2, inplace=True)
    (13): Conv2d(256, 256, kernel_size=(4, 4), stride=(2, 2), padding=(1, 1))
    (14): BatchNorm2d(256, eps=0.0001, momentum=0.9, affine=True, track_running_stats=True)
    (15): LeakyReLU(negative_slope=0.2, inplace=True)
    (16): Conv2d(256, 512, kernel_size=(3, 3), stride=(1, 1), padding=(1, 1))
    (17): BatchNorm2d(512, eps=0.0001, momentum=0.9, affine=True, track_running_stats=True)
    (18): LeakyReLU(negative_slope=0.2, inplace=True)
    (19): Conv2d(512, 512, kernel_size=(4, 4), stride=(2, 2), padding=(1, 1))
    (20): BatchNorm2d(512, eps=0.0001, momentum=0.9, affine=True, track_running_stats=True)
    (21): LeakyReLU(negative_slope=0.2, inplace=True)
    (22): Conv2d(512, 512, kernel_size=(3, 3), stride=(1, 1), padding=(1, 1))
    (23): BatchNorm2d(512, eps=0.0001, momentum=0.9, affine=True, track_running_stats=True)
    (24): LeakyReLU(negative_slope=0.2, inplace=True)
    (25): Conv2d(512, 512, kernel_size=(4, 4), stride=(2, 2), padding=(1, 1))
    (26): BatchNorm2d(512, eps=0.0001, momentum=0.9, affine=True, track_running_stats=True)
    (27): LeakyReLU(negative_slope=0.2, inplace=True)
  )
  (classifier): Sequential(
    (0): Linear(in_features=8192, out_features=100, bias=True)
    (1): LeakyReLU(negative_slope=0.2, inplace=True)
    (2): Linear(in_features=100, out_features=1, bias=True)
  )
)

24-04-08 09:23:45.992 : 
 |  mean  |  min   |  max   |  std   || shape               
 | -0.000 | -0.020 |  0.020 |  0.012 | torch.Size([64, 1, 1, 3, 3]) || conv_init0.0.weight
 | -0.000 | -0.014 |  0.014 |  0.008 | torch.Size([64, 64, 1, 3, 3]) || conv_init.0.weight
 | -0.000 | -0.014 |  0.014 |  0.008 | torch.Size([64, 64, 1, 3, 3]) || conv_init.2.weight
…
    D_param_strict: True
    E_param_strict: True
    checkpoint_test: 5000
    checkpoint_save: 5000
    checkpoint_print: 200
    G_optimizer_betas: [0.9, 0.999]
    G_scheduler_restart_weights: 1
  ]
  opt_path: options/train_lft_gan.json
  is_train: True
  find_unused_parameters: True
  use_static_graph: False
  dist: False
  num_gpu: 1
  rank: 0
  world_size: 1

24-04-08 09:25:29.631 : Number of train images: 165, iters: 83
24-04-08 09:25:31.664 : 
Networks name: get_model
Params number: 1163392
Net structure:
get_model(
  (pos_encoding): PositionEncoding()
  (conv_init0): Sequential(
    (0): Conv3d(1, 64, kernel_size=(1, 3, 3), stride=(1, 1, 1), padding=(0, 1, 1), bias=False)
  )
  (conv_init): Sequential(
    (0): Conv3d(64, 64, kernel_size=(1, 3, 3), stride=(1, 1, 1), padding=(0, 1, 1), bias=False)
    (1): LeakyReLU(negative_slope=0.2, inplace=True)
    (2): Conv3d(64, 64, kernel_size=(1, 3, 3), stride=(1, 1, 1), padding=(0, 1, 1), bias=False)
    (3): LeakyReLU(negative_slope=0.2, inplace=True)
    (4): Conv3d(64, 64, kernel_size=(1, 3, 3), stride=(1, 1, 1), padding=(0, 1, 1), bias=False)
    (5): LeakyReLU(negative_slope=0.2, inplace=True)
  )
  (altblock): Sequential(
    (0): AltFilter(
      (spa_trans): SpaTrans(
        (MLP): Linear(in_features=576, out_features=128, bias=False)
        (norm): LayerNorm((128,), eps=1e-05, elementwise_affine=True)
        (attention): MultiheadAttention(
          (out_proj): NonDynamicallyQuantizableLinear(in_features=128, out_features=128, bias=False)
        )
        (feed_forward): Sequential(
          (0): LayerNorm((128,), eps=1e-05, elementwise_affine=True)
          (1): Linear(in_features=128, out_features=256, bias=False)
          (2): ReLU(inplace=True)
          (3): Dropout(p=0.0, inplace=False)
          (4): Linear(in_features=256, out_features=128, bias=False)
          (5): Dropout(p=0.0, inplace=False)
        )
        (linear): Sequential(
          (0): Conv3d(128, 64, kernel_size=(1, 1, 1), stride=(1, 1, 1), bias=False)
        )
      )
      (ang_trans): AngTrans(
        (norm): LayerNorm((64,), eps=1e-05, elementwise_affine=True)
        (attention): MultiheadAttention(
          (out_proj): NonDynamicallyQuantizableLinear(in_features=64, out_features=64, bias=False)
        )
        (feed_forward): Sequential(
          (0): LayerNorm((64,), eps=1e-05, elementwise_affine=True)
          (1): Linear(in_features=64, out_features=128, bias=False)
          (2): ReLU(inplace=True)
          (3): Dropout(p=0.0, inplace=False)
          (4): Linear(in_features=128, out_features=64, bias=False)
          (5): Dropout(p=0.0, inplace=False)
        )
      )
    )
    (1): AltFilter(
      (spa_trans): SpaTrans(
        (MLP): Linear(in_features=576, out_features=128, bias=False)
        (norm): LayerNorm((128,), eps=1e-05, elementwise_affine=True)
        (attention): MultiheadAttention(
          (out_proj): NonDynamicallyQuantizableLinear(in_features=128, out_features=128, bias=False)
        )
        (feed_forward): Sequential(
          (0): LayerNorm((128,), eps=1e-05, elementwise_affine=True)
          (1): Linear(in_features=128, out_features=256, bias=False)
          (2): ReLU(inplace=True)
          (3): Dropout(p=0.0, inplace=False)
          (4): Linear(in_features=256, out_features=128, bias=False)
          (5): Dropout(p=0.0, inplace=False)
        )
        (linear): Sequential(
          (0): Conv3d(128, 64, kernel_size=(1, 1, 1), stride=(1, 1, 1), bias=False)
        )
      )
      (ang_trans): AngTrans(
        (norm): LayerNorm((64,), eps=1e-05, elementwise_affine=True)
        (attention): MultiheadAttention(
          (out_proj): NonDynamicallyQuantizableLinear(in_features=64, out_features=64, bias=False)
        )
        (feed_forward): Sequential(
          (0): LayerNorm((64,), eps=1e-05, elementwise_affine=True)
          (1): Linear(in_features=64, out_features=128, bias=False)
          (2): ReLU(inplace=True)
          (3): Dropout(p=0.0, inplace=False)
          (4): Linear(in_features=128, out_features=64, bias=False)
          (5): Dropout(p=0.0, inplace=False)
        )
      )
    )
    (2): AltFilter(
      (spa_trans): SpaTrans(
        (MLP): Linear(in_features=576, out_features=128, bias=False)
        (norm): LayerNorm((128,), eps=1e-05, elementwise_affine=True)
        (attention): MultiheadAttention(
          (out_proj): NonDynamicallyQuantizableLinear(in_features=128, out_features=128, bias=False)
        )
        (feed_forward): Sequential(
          (0): LayerNorm((128,), eps=1e-05, elementwise_affine=True)
          (1): Linear(in_features=128, out_features=256, bias=False)
          (2): ReLU(inplace=True)
          (3): Dropout(p=0.0, inplace=False)
          (4): Linear(in_features=256, out_features=128, bias=False)
          (5): Dropout(p=0.0, inplace=False)
        )
        (linear): Sequential(
          (0): Conv3d(128, 64, kernel_size=(1, 1, 1), stride=(1, 1, 1), bias=False)
        )
      )
      (ang_trans): AngTrans(
        (norm): LayerNorm((64,), eps=1e-05, elementwise_affine=True)
        (attention): MultiheadAttention(
          (out_proj): NonDynamicallyQuantizableLinear(in_features=64, out_features=64, bias=False)
        )
        (feed_forward): Sequential(
          (0): LayerNorm((64,), eps=1e-05, elementwise_affine=True)
          (1): Linear(in_features=64, out_features=128, bias=False)
          (2): ReLU(inplace=True)
          (3): Dropout(p=0.0, inplace=False)
          (4): Linear(in_features=128, out_features=64, bias=False)
          (5): Dropout(p=0.0, inplace=False)
        )
      )
    )
    (3): AltFilter(
      (spa_trans): SpaTrans(
        (MLP): Linear(in_features=576, out_features=128, bias=False)
        (norm): LayerNorm((128,), eps=1e-05, elementwise_affine=True)
        (attention): MultiheadAttention(
          (out_proj): NonDynamicallyQuantizableLinear(in_features=128, out_features=128, bias=False)
        )
        (feed_forward): Sequential(
          (0): LayerNorm((128,), eps=1e-05, elementwise_affine=True)
          (1): Linear(in_features=128, out_features=256, bias=False)
          (2): ReLU(inplace=True)
          (3): Dropout(p=0.0, inplace=False)
          (4): Linear(in_features=256, out_features=128, bias=False)
          (5): Dropout(p=0.0, inplace=False)
        )
        (linear): Sequential(
          (0): Conv3d(128, 64, kernel_size=(1, 1, 1), stride=(1, 1, 1), bias=False)
        )
      )
      (ang_trans): AngTrans(
        (norm): LayerNorm((64,), eps=1e-05, elementwise_affine=True)
        (attention): MultiheadAttention(
          (out_proj): NonDynamicallyQuantizableLinear(in_features=64, out_features=64, bias=False)
        )
        (feed_forward): Sequential(
          (0): LayerNorm((64,), eps=1e-05, elementwise_affine=True)
          (1): Linear(in_features=64, out_features=128, bias=False)
          (2): ReLU(inplace=True)
          (3): Dropout(p=0.0, inplace=False)
          (4): Linear(in_features=128, out_features=64, bias=False)
          (5): Dropout(p=0.0, inplace=False)
        )
      )
    )
  )
  (upsampling): Sequential(
    (0): Conv2d(64, 1024, kernel_size=(1, 1), stride=(1, 1), bias=False)
    (1): PixelShuffle(upscale_factor=4)
    (2): LeakyReLU(negative_slope=0.2)
    (3): Conv2d(64, 1, kernel_size=(3, 3), stride=(1, 1), padding=(1, 1), bias=False)
  )
)

Networks name: Discriminator_VGG_192
Params number: 20700553
Net structure:
Discriminator_VGG_192(
  (features): Sequential(
    (0): Conv2d(3, 64, kernel_size=(3, 3), stride=(1, 1), padding=(1, 1))
    (1): Conv2d(64, 64, kernel_size=(4, 4), stride=(2, 2), padding=(1, 1))
    (2): BatchNorm2d(64, eps=0.0001, momentum=0.9, affine=True, track_running_stats=True)
    (3): LeakyReLU(negative_slope=0.2, inplace=True)
    (4): Conv2d(64, 128, kernel_size=(3, 3), stride=(1, 1), padding=(1, 1))
    (5): BatchNorm2d(128, eps=0.0001, momentum=0.9, affine=True, track_running_stats=True)
    (6): LeakyReLU(negative_slope=0.2, inplace=True)
    (7): Conv2d(128, 128, kernel_size=(4, 4), stride=(2, 2), padding=(1, 1))
    (8): BatchNorm2d(128, eps=0.0001, momentum=0.9, affine=True, track_running_stats=True)
    (9): LeakyReLU(negative_slope=0.2, inplace=True)
    (10): Conv2d(128, 256, kernel_size=(3, 3), stride=(1, 1), padding=(1, 1))
    (11): BatchNorm2d(256, eps=0.0001, momentum=0.9, affine=True, track_running_stats=True)
    (12): LeakyReLU(negative_slope=0.2, inplace=True)
    (13): Conv2d(256, 256, kernel_size=(4, 4), stride=(2, 2), padding=(1, 1))
    (14): BatchNorm2d(256, eps=0.0001, momentum=0.9, affine=True, track_running_stats=True)
    (15): LeakyReLU(negative_slope=0.2, inplace=True)
    (16): Conv2d(256, 512, kernel_size=(3, 3), stride=(1, 1), padding=(1, 1))
    (17): BatchNorm2d(512, eps=0.0001, momentum=0.9, affine=True, track_running_stats=True)
    (18): LeakyReLU(negative_slope=0.2, inplace=True)
    (19): Conv2d(512, 512, kernel_size=(4, 4), stride=(2, 2), padding=(1, 1))
    (20): BatchNorm2d(512, eps=0.0001, momentum=0.9, affine=True, track_running_stats=True)
    (21): LeakyReLU(negative_slope=0.2, inplace=True)
    (22): Conv2d(512, 512, kernel_size=(3, 3), stride=(1, 1), padding=(1, 1))
    (23): BatchNorm2d(512, eps=0.0001, momentum=0.9, affine=True, track_running_stats=True)
    (24): LeakyReLU(negative_slope=0.2, inplace=True)
    (25): Conv2d(512, 512, kernel_size=(4, 4), stride=(2, 2), padding=(1, 1))
    (26): BatchNorm2d(512, eps=0.0001, momentum=0.9, affine=True, track_running_stats=True)
    (27): LeakyReLU(negative_slope=0.2, inplace=True)
    (28): Conv2d(512, 512, kernel_size=(3, 3), stride=(1, 1), padding=(1, 1))
    (29): BatchNorm2d(512, eps=0.0001, momentum=0.9, affine=True, track_running_stats=True)
    (30): LeakyReLU(negative_slope=0.2, inplace=True)
    (31): Conv2d(512, 512, kernel_size=(4, 4), stride=(2, 2), padding=(1, 1))
    (32): BatchNorm2d(512, eps=0.0001, momentum=0.9, affine=True, track_running_stats=True)
    (33): LeakyReLU(negative_slope=0.2, inplace=True)
  )
  (classifier): Sequential(
    (0): Linear(in_features=4608, out_features=100, bias=True)
    (1): LeakyReLU(negative_slope=0.2, inplace=True)
    (2): Linear(in_features=100, out_features=1, bias=True)
  )
)

24-04-08 09:25:31.702 : 
 |  mean  |  min   |  max   |  std   || shape               
 | -0.000 | -0.020 |  0.020 |  0.012 | torch.Size([64, 1, 1, 3, 3]) || conv_init0.0.weight
 |  0.000 | -0.014 |  0.014 |  0.008 | torch.Size([64, 64, 1, 3, 3]) || conv_init.0.weight
 |  0.000 | -0.014 |  0.014 |  0.008 | torch.Size([64, 64, 1, 3, 3]) || conv_init.2.weight
…
