…
    F_weights: 1.0
    F_lossfn_type: l1
    F_use_input_norm: True
    F_use_range_norm: False
    G_optimizer_betas: [0.9, 0.999]
    G_scheduler_restart_weights: 1
  ]
  opt_path: options/train_convsmoe_psnr.json
  is_train: True
  find_unused_parameters: True
  use_static_graph: False
  dist: False
  num_gpu: 1
  rank: 0
  world_size: 1

24-04-03 14:46:28.086 : Number of train images: 377, iters: 189
24-04-03 14:46:33.202 : 
Networks name: Autoencoder
Params number: 98845367
Net structure:
Autoencoder(
  (encoder): Encoder(
    (downsample_layers): ModuleList(
      (0): Sequential(
        (0): Conv2d(3, 128, kernel_size=(4, 4), stride=(4, 4))
        (1): LayerNorm()
      )
      (1): Sequential(
        (0): LayerNorm()
        (1): Conv2d(128, 256, kernel_size=(2, 2), stride=(2, 2))
      )
      (2): Sequential(
        (0): LayerNorm()
        (1): Conv2d(256, 512, kernel_size=(2, 2), stride=(2, 2))
      )
      (3): Sequential(
        (0): LayerNorm()
        (1): Conv2d(512, 1024, kernel_size=(2, 2), stride=(2, 2))
      )
    )
    (stages): ModuleList(
      (0): Sequential(
        (0): Block(
          (dwconv): Conv2d(128, 128, kernel_size=(7, 7), stride=(1, 1), padding=(3, 3), groups=128)
          (norm): LayerNorm()
          (pwconv1): Linear(in_features=128, out_features=512, bias=True)
          (act): GELU(approximate='none')
          (pwconv2): Linear(in_features=512, out_features=128, bias=True)
          (drop_path): Identity()
        )
        (1): Block(
          (dwconv): Conv2d(128, 128, kernel_size=(7, 7), stride=(1, 1), padding=(3, 3), groups=128)
          (norm): LayerNorm()
          (pwconv1): Linear(in_features=128, out_features=512, bias=True)
          (act): GELU(approximate='none')
          (pwconv2): Linear(in_features=512, out_features=128, bias=True)
          (drop_path): Identity()
        )
        (2): Block(
          (dwconv): Conv2d(128, 128, kernel_size=(7, 7), stride=(1, 1), padding=(3, 3), groups=128)
          (norm): LayerNorm()
          (pwconv1): Linear(in_features=128, out_features=512, bias=True)
          (act): GELU(approximate='none')
          (pwconv2): Linear(in_features=512, out_features=128, bias=True)
          (drop_path): Identity()
        )
      )
      (1): Sequential(
        (0): Block(
          (dwconv): Conv2d(256, 256, kernel_size=(7, 7), stride=(1, 1), padding=(3, 3), groups=256)
          (norm): LayerNorm()
          (pwconv1): Linear(in_features=256, out_features=1024, bias=True)
          (act): GELU(approximate='none')
          (pwconv2): Linear(in_features=1024, out_features=256, bias=True)
          (drop_path): Identity()
        )
        (1): Block(
          (dwconv): Conv2d(256, 256, kernel_size=(7, 7), stride=(1, 1), padding=(3, 3), groups=256)
          (norm): LayerNorm()
          (pwconv1): Linear(in_features=256, out_features=1024, bias=True)
          (act): GELU(approximate='none')
          (pwconv2): Linear(in_features=1024, out_features=256, bias=True)
          (drop_path): Identity()
        )
        (2): Block(
          (dwconv): Conv2d(256, 256, kernel_size=(7, 7), stride=(1, 1), padding=(3, 3), groups=256)
          (norm): LayerNorm()
          (pwconv1): Linear(in_features=256, out_features=1024, bias=True)
          (act): GELU(approximate='none')
          (pwconv2): Linear(in_features=1024, out_features=256, bias=True)
          (drop_path): Identity()
        )
      )
      (2): Sequential(
        (0): Block(
          (dwconv): Conv2d(512, 512, kernel_size=(7, 7), stride=(1, 1), padding=(3, 3), groups=512)
          (norm): LayerNorm()
          (pwconv1): Linear(in_features=512, out_features=2048, bias=True)
          (act): GELU(approximate='none')
          (pwconv2): Linear(in_features=2048, out_features=512, bias=True)
          (drop_path): Identity()
        )
        (1): Block(
          (dwconv): Conv2d(512, 512, kernel_size=(7, 7), stride=(1, 1), padding=(3, 3), groups=512)
          (norm): LayerNorm()
          (pwconv1): Linear(in_features=512, out_features=2048, bias=True)
          (act): GELU(approximate='none')
          (pwconv2): Linear(in_features=2048, out_features=512, bias=True)
          (drop_path): Identity()
        )
        (2): Block(
          (dwconv): Conv2d(512, 512, kernel_size=(7, 7), stride=(1, 1), padding=(3, 3), groups=512)
          (norm): LayerNorm()
          (pwconv1): Linear(in_features=512, out_features=2048, bias=True)
          (act): GELU(approximate='none')
          (pwconv2): Linear(in_features=2048, out_features=512, bias=True)
          (drop_path): Identity()
        )
        (3): Block(
          (dwconv): Conv2d(512, 512, kernel_size=(7, 7), stride=(1, 1), padding=(3, 3), groups=512)
          (norm): LayerNorm()
          (pwconv1): Linear(in_features=512, out_features=2048, bias=True)
          (act): GELU(approximate='none')
          (pwconv2): Linear(in_features=2048, out_features=512, bias=True)
          (drop_path): Identity()
        )
        (4): Block(
          (dwconv): Conv2d(512, 512, kernel_size=(7, 7), stride=(1, 1), padding=(3, 3), groups=512)
          (norm): LayerNorm()
          (pwconv1): Linear(in_features=512, out_features=2048, bias=True)
          (act): GELU(approximate='none')
          (pwconv2): Linear(in_features=2048, out_features=512, bias=True)
          (drop_path): Identity()
        )
        (5): Block(
          (dwconv): Conv2d(512, 512, kernel_size=(7, 7), stride=(1, 1), padding=(3, 3), groups=512)
          (norm): LayerNorm()
          (pwconv1): Linear(in_features=512, out_features=2048, bias=True)
          (act): GELU(approximate='none')
          (pwconv2): Linear(in_features=2048, out_features=512, bias=True)
          (drop_path): Identity()
        )
        (6): Block(
          (dwconv): Conv2d(512, 512, kernel_size=(7, 7), stride=(1, 1), padding=(3, 3), groups=512)
          (norm): LayerNorm()
          (pwconv1): Linear(in_features=512, out_features=2048, bias=True)
          (act): GELU(approximate='none')
          (pwconv2): Linear(in_features=2048, out_features=512, bias=True)
          (drop_path): Identity()
        )
        (7): Block(
          (dwconv): Conv2d(512, 512, kernel_size=(7, 7), stride=(1, 1), padding=(3, 3), groups=512)
          (norm): LayerNorm()
          (pwconv1): Linear(in_features=512, out_features=2048, bias=True)
          (act): GELU(approximate='none')
          (pwconv2): Linear(in_features=2048, out_features=512, bias=True)
          (drop_path): Identity()
        )
        (8): Block(
          (dwconv): Conv2d(512, 512, kernel_size=(7, 7), stride=(1, 1), padding=(3, 3), groups=512)
          (norm): LayerNorm()
          (pwconv1): Linear(in_features=512, out_features=2048, bias=True)
          (act): GELU(approximate='none')
          (pwconv2): Linear(in_features=2048, out_features=512, bias=True)
          (drop_path): Identity()
        )
        (9): Block(
          (dwconv): Conv2d(512, 512, kernel_size=(7, 7), stride=(1, 1), padding=(3, 3), groups=512)
          (norm): LayerNorm()
          (pwconv1): Linear(in_features=512, out_features=2048, bias=True)
          (act): GELU(approximate='none')
          (pwconv2): Linear(in_features=2048, out_features=512, bias=True)
          (drop_path): Identity()
        )
        (10): Block(
          (dwconv): Conv2d(512, 512, kernel_size=(7, 7), stride=(1, 1), padding=(3, 3), groups=512)
          (norm): LayerNorm()
          (pwconv1): Linear(in_features=512, out_features=2048, bias=True)
          (act): GELU(approximate='none')
          (pwconv2): Linear(in_features=2048, out_features=512, bias=True)
          (drop_path): Identity()
        )
        (11): Block(
          (dwconv): Conv2d(512, 512, kernel_size=(7, 7), stride=(1, 1), padding=(3, 3), groups=512)
          (norm): LayerNorm()
          (pwconv1): Linear(in_features=512, out_features=2048, bias=True)
          (act): GELU(approximate='none')
          (pwconv2): Linear(in_features=2048, out_features=512, bias=True)
          (drop_path): Identity()
        )
        (12): Block(
          (dwconv): Conv2d(512, 512, kernel_size=(7, 7), stride=(1, 1), padding=(3, 3), groups=512)
          (norm): LayerNorm()
          (pwconv1): Linear(in_features=512, out_features=2048, bias=True)
          (act): GELU(approximate='none')
          (pwconv2): Linear(in_features=2048, out_features=512, bias=True)
          (drop_path): Identity()
        )
        (13): Block(
          (dwconv): Conv2d(512, 512, kernel_size=(7, 7), stride=(1, 1), padding=(3, 3), groups=512)
          (norm): LayerNorm()
          (pwconv1): Linear(in_features=512, out_features=2048, bias=True)
          (act): GELU(approximate='none')
          (pwconv2): Linear(in_features=2048, out_features=512, bias=True)
          (drop_path): Identity()
        )
        (14): Block(
          (dwconv): Conv2d(512, 512, kernel_size=(7, 7), stride=(1, 1), padding=(3, 3), groups=512)
          (norm): LayerNorm()
          (pwconv1): Linear(in_features=512, out_features=2048, bias=True)
          (act): GELU(approximate='none')
          (pwconv2): Linear(in_features=2048, out_features=512, bias=True)
          (drop_path): Identity()
        )
        (15): Block(
          (dwconv): Conv2d(512, 512, kernel_size=(7, 7), stride=(1, 1), padding=(3, 3), groups=512)
          (norm): LayerNorm()
          (pwconv1): Linear(in_features=512, out_features=2048, bias=True)
          (act): GELU(approximate='none')
          (pwconv2): Linear(in_features=2048, out_features=512, bias=True)
          (drop_path): Identity()
        )
        (16): Block(
          (dwconv): Conv2d(512, 512, kernel_size=(7, 7), stride=(1, 1), padding=(3, 3), groups=512)
          (norm): LayerNorm()
          (pwconv1): Linear(in_features=512, out_features=2048, bias=True)
          (act): GELU(approximate='none')
          (pwconv2): Linear(in_features=2048, out_features=512, bias=True)
          (drop_path): Identity()
        )
        (17): Block(
          (dwconv): Conv2d(512, 512, kernel_size=(7, 7), stride=(1, 1), padding=(3, 3), groups=512)
          (norm): LayerNorm()
          (pwconv1): Linear(in_features=512, out_features=2048, bias=True)
          (act): GELU(approximate='none')
          (pwconv2): Linear(in_features=2048, out_features=512, bias=True)
          (drop_path): Identity()
        )
        (18): Block(
          (dwconv): Conv2d(512, 512, kernel_size=(7, 7), stride=(1, 1), padding=(3, 3), groups=512)
          (norm): LayerNorm()
          (pwconv1): Linear(in_features=512, out_features=2048, bias=True)
          (act): GELU(approximate='none')
          (pwconv2): Linear(in_features=2048, out_features=512, bias=True)
          (drop_path): Identity()
        )
        (19): Block(
          (dwconv): Conv2d(512, 512, kernel_size=(7, 7), stride=(1, 1), padding=(3, 3), groups=512)
          (norm): LayerNorm()
          (pwconv1): Linear(in_features=512, out_features=2048, bias=True)
          (act): GELU(approximate='none')
          (pwconv2): Linear(in_features=2048, out_features=512, bias=True)
          (drop_path): Identity()
        )
        (20): Block(
          (dwconv): Conv2d(512, 512, kernel_size=(7, 7), stride=(1, 1), padding=(3, 3), groups=512)
          (norm): LayerNorm()
          (pwconv1): Linear(in_features=512, out_features=2048, bias=True)
          (act): GELU(approximate='none')
          (pwconv2): Linear(in_features=2048, out_features=512, bias=True)
          (drop_path): Identity()
        )
        (21): Block(
          (dwconv): Conv2d(512, 512, kernel_size=(7, 7), stride=(1, 1), padding=(3, 3), groups=512)
          (norm): LayerNorm()
          (pwconv1): Linear(in_features=512, out_features=2048, bias=True)
          (act): GELU(approximate='none')
          (pwconv2): Linear(in_features=2048, out_features=512, bias=True)
          (drop_path): Identity()
        )
        (22): Block(
          (dwconv): Conv2d(512, 512, kernel_size=(7, 7), stride=(1, 1), padding=(3, 3), groups=512)
          (norm): LayerNorm()
          (pwconv1): Linear(in_features=512, out_features=2048, bias=True)
          (act): GELU(approximate='none')
          (pwconv2): Linear(in_features=2048, out_features=512, bias=True)
          (drop_path): Identity()
        )
        (23): Block(
          (dwconv): Conv2d(512, 512, kernel_size=(7, 7), stride=(1, 1), padding=(3, 3), groups=512)
          (norm): LayerNorm()
          (pwconv1): Linear(in_features=512, out_features=2048, bias=True)
          (act): GELU(approximate='none')
          (pwconv2): Linear(in_features=2048, out_features=512, bias=True)
          (drop_path): Identity()
        )
        (24): Block(
          (dwconv): Conv2d(512, 512, kernel_size=(7, 7), stride=(1, 1), padding=(3, 3), groups=512)
          (norm): LayerNorm()
          (pwconv1): Linear(in_features=512, out_features=2048, bias=True)
          (act): GELU(approximate='none')
          (pwconv2): Linear(in_features=2048, out_features=512, bias=True)
          (drop_path): Identity()
        )
        (25): Block(
          (dwconv): Conv2d(512, 512, kernel_size=(7, 7), stride=(1, 1), padding=(3, 3), groups=512)
          (norm): LayerNorm()
          (pwconv1): Linear(in_features=512, out_features=2048, bias=True)
          (act): GELU(approximate='none')
          (pwconv2): Linear(in_features=2048, out_features=512, bias=True)
          (drop_path): Identity()
        )
        (26): Block(
          (dwconv): Conv2d(512, 512, kernel_size=(7, 7), stride=(1, 1), padding=(3, 3), groups=512)
          (norm): LayerNorm()
          (pwconv1): Linear(in_features=512, out_features=2048, bias=True)
          (act): GELU(approximate='none')
          (pwconv2): Linear(in_features=2048, out_features=512, bias=True)
          (drop_path): Identity()
        )
      )
      (3): Sequential(
        (0): Block(
          (dwconv): Conv2d(1024, 1024, kernel_size=(7, 7), stride=(1, 1), padding=(3, 3), groups=1024)
          (norm): LayerNorm()
          (pwconv1): Linear(in_features=1024, out_features=4096, bias=True)
          (act): GELU(approximate='none')
          (pwconv2): Linear(in_features=4096, out_features=1024, bias=True)
          (drop_path): Identity()
        )
        (1): Block(
          (dwconv): Conv2d(1024, 1024, kernel_size=(7, 7), stride=(1, 1), padding=(3, 3), groups=1024)
          (norm): LayerNorm()
          (pwconv1): Linear(in_features=1024, out_features=4096, bias=True)
          (act): GELU(approximate='none')
          (pwconv2): Linear(in_features=4096, out_features=1024, bias=True)
          (drop_path): Identity()
        )
        (2): Block(
          (dwconv): Conv2d(1024, 1024, kernel_size=(7, 7), stride=(1, 1), padding=(3, 3), groups=1024)
          (norm): LayerNorm()
          (pwconv1): Linear(in_features=1024, out_features=4096, bias=True)
          (act): GELU(approximate='none')
          (pwconv2): Linear(in_features=4096, out_features=1024, bias=True)
          (drop_path): Identity()
        )
      )
    )
    (norm): LayerNorm((1024,), eps=1e-06, elementwise_affine=True)
    (fc): ForwardPool(
      (layers): Sequential(
        (0): Linear(in_features=1024, out_features=2048, bias=True)
        (1): BatchNorm1d(2048, eps=1e-05, momentum=0.1, affine=True, track_running_stats=True)
        (2): SELU()
        (3): Dropout(p=0.0, inplace=False)
        (4): Linear(in_features=2048, out_features=4096, bias=True)
        (5): BatchNorm1d(4096, eps=1e-05, momentum=0.1, affine=True, track_running_stats=True)
        (6): SELU()
        (7): Dropout(p=0.0, inplace=False)
        (8): Linear(in_features=4096, out_features=189, bias=True)
        (9): BatchNorm1d(189, eps=1e-05, momentum=0.1, affine=True, track_running_stats=True)
        (10): SELU()
        (11): Dropout(p=0.0, inplace=False)
      )
    )
  )
  (decoder): Decoder()
)

24-04-03 14:46:33.357 : 
 |  mean  |  min   |  max   |  std   || shape               
 |  0.000 | -0.070 |  0.077 |  0.020 | torch.Size([128, 3, 4, 4]) || encoder.downsample_layers.0.0.weight
 |  0.000 |  0.000 |  0.000 |  0.000 | torch.Size([128]) || encoder.downsample_layers.0.0.bias
…
