…
    D_param_strict: True
    E_param_strict: True
    checkpoint_test: 5000
    checkpoint_save: 5000
    checkpoint_print: 200
    G_optimizer_betas: [0.9, 0.999]
    G_scheduler_restart_weights: 1
  ]
  opt_path: options/train_lft_gan.json
  is_train: True
  find_unused_parameters: True
  use_static_graph: False
  dist: False
  num_gpu: 1
  rank: 0
  world_size: 1

24-04-05 17:11:51.340 : Number of train images: 165, iters: 83
24-04-05 17:12:45.167 : 
Networks name: get_model
Params number: 1163392
Net structure:
get_model(
  (pos_encoding): PositionEncoding()
  (conv_init0): Sequential(
    (0): Conv3d(1, 64, kernel_size=(1, 3, 3), stride=(1, 1, 1), padding=(0, 1, 1), bias=False)
  )
  (conv_init): Sequential(
    (0): Conv3d(64, 64, kernel_size=(1, 3, 3), stride=(1, 1, 1), padding=(0, 1, 1), bias=False)
    (1): LeakyReLU(negative_slope=0.2, inplace=True)
    (2): Conv3d(64, 64, kernel_size=(1, 3, 3), stride=(1, 1, 1), padding=(0, 1, 1), bias=False)
    (3): LeakyReLU(negative_slope=0.2, inplace=True)
    (4): Conv3d(64, 64, kernel_size=(1, 3, 3), stride=(1, 1, 1), padding=(0, 1, 1), bias=False)
    (5): LeakyReLU(negative_slope=0.2, inplace=True)
  )
  (altblock): Sequential(
    (0): AltFilter(
      (spa_trans): SpaTrans(
        (MLP): Linear(in_features=576, out_features=128, bias=False)
        (norm): LayerNorm((128,), eps=1e-05, elementwise_affine=True)
        (attention): MultiheadAttention(
          (out_proj): NonDynamicallyQuantizableLinear(in_features=128, out_features=128, bias=False)
        )
        (feed_forward): Sequential(
          (0): LayerNorm((128,), eps=1e-05, elementwise_affine=True)
          (1): Linear(in_features=128, out_features=256, bias=False)
          (2): ReLU(inplace=True)
          (3): Dropout(p=0.0, inplace=False)
          (4): Linear(in_features=256, out_features=128, bias=False)
          (5): Dropout(p=0.0, inplace=False)
        )
        (linear): Sequential(
          (0): Conv3d(128, 64, kernel_size=(1, 1, 1), stride=(1, 1, 1), bias=False)
        )
      )
      (ang_trans): AngTrans(
        (norm): LayerNorm((64,), eps=1e-05, elementwise_affine=True)
        (attention): MultiheadAttention(
          (out_proj): NonDynamicallyQuantizableLinear(in_features=64, out_features=64, bias=False)
        )
        (feed_forward): Sequential(
          (0): LayerNorm((64,), eps=1e-05, elementwise_affine=True)
          (1): Linear(in_features=64, out_features=128, bias=False)
          (2): ReLU(inplace=True)
          (3): Dropout(p=0.0, inplace=False)
          (4): Linear(in_features=128, out_features=64, bias=False)
          (5): Dropout(p=0.0, inplace=False)
        )
      )
    )
    (1): AltFilter(
      (spa_trans): SpaTrans(
        (MLP): Linear(in_features=576, out_features=128, bias=False)
        (norm): LayerNorm((128,), eps=1e-05, elementwise_affine=True)
        (attention): MultiheadAttention(
          (out_proj): NonDynamicallyQuantizableLinear(in_features=128, out_features=128, bias=False)
        )
        (feed_forward): Sequential(
          (0): LayerNorm((128,), eps=1e-05, elementwise_affine=True)
          (1): Linear(in_features=128, out_features=256, bias=False)
          (2): ReLU(inplace=True)
          (3): Dropout(p=0.0, inplace=False)
          (4): Linear(in_features=256, out_features=128, bias=False)
          (5): Dropout(p=0.0, inplace=False)
        )
        (linear): Sequential(
          (0): Conv3d(128, 64, kernel_size=(1, 1, 1), stride=(1, 1, 1), bias=False)
        )
      )
      (ang_trans): AngTrans(
        (norm): LayerNorm((64,), eps=1e-05, elementwise_affine=True)
        (attention): MultiheadAttention(
          (out_proj): NonDynamicallyQuantizableLinear(in_features=64, out_features=64, bias=False)
        )
        (feed_forward): Sequential(
          (0): LayerNorm((64,), eps=1e-05, elementwise_affine=True)
          (1): Linear(in_features=64, out_features=128, bias=False)
          (2): ReLU(inplace=True)
          (3): Dropout(p=0.0, inplace=False)
          (4): Linear(in_features=128, out_features=64, bias=False)
          (5): Dropout(p=0.0, inplace=False)
        )
      )
    )
    (2): AltFilter(
      (spa_trans): SpaTrans(
        (MLP): Linear(in_features=576, out_features=128, bias=False)
        (norm): LayerNorm((128,), eps=1e-05, elementwise_affine=True)
        (attention): MultiheadAttention(
          (out_proj): NonDynamicallyQuantizableLinear(in_features=128, out_features=128, bias=False)
        )
        (feed_forward): Sequential(
          (0): LayerNorm((128,), eps=1e-05, elementwise_affine=True)
          (1): Linear(in_features=128, out_features=256, bias=False)
          (2): ReLU(inplace=True)
          (3): Dropout(p=0.0, inplace=False)
          (4): Linear(in_features=256, out_features=128, bias=False)
          (5): Dropout(p=0.0, inplace=False)
        )
        (linear): Sequential(
          (0): Conv3d(128, 64, kernel_size=(1, 1, 1), stride=(1, 1, 1), bias=False)
        )
      )
      (ang_trans): AngTrans(
        (norm): LayerNorm((64,), eps=1e-05, elementwise_affine=True)
        (attention): MultiheadAttention(
          (out_proj): NonDynamicallyQuantizableLinear(in_features=64, out_features=64, bias=False)
        )
        (feed_forward): Sequential(
          (0): LayerNorm((64,), eps=1e-05, elementwise_affine=True)
          (1): Linear(in_features=64, out_features=128, bias=False)
          (2): ReLU(inplace=True)
          (3): Dropout(p=0.0, inplace=False)
          (4): Linear(in_features=128, out_features=64, bias=False)
          (5): Dropout(p=0.0, inplace=False)
        )
      )
    )
    (3): AltFilter(
      (spa_trans): SpaTrans(
        (MLP): Linear(in_features=576, out_features=128, bias=False)
        (norm): LayerNorm((128,), eps=1e-05, elementwise_affine=True)
        (attention): MultiheadAttention(
          (out_proj): NonDynamicallyQuantizableLinear(in_features=128, out_features=128, bias=False)
        )
        (feed_forward): Sequential(
          (0): LayerNorm((128,), eps=1e-05, elementwise_affine=True)
          (1): Linear(in_features=128, out_features=256, bias=False)
          (2): ReLU(inplace=True)
          (3): Dropout(p=0.0, inplace=False)
          (4): Linear(in_features=256, out_features=128, bias=False)
          (5): Dropout(p=0.0, inplace=False)
        )
        (linear): Sequential(
          (0): Conv3d(128, 64, kernel_size=(1, 1, 1), stride=(1, 1, 1), bias=False)
        )
      )
      (ang_trans): AngTrans(
        (norm): LayerNorm((64,), eps=1e-05, elementwise_affine=True)
        (attention): MultiheadAttention(
          (out_proj): NonDynamicallyQuantizableLinear(in_features=64, out_features=64, bias=False)
        )
        (feed_forward): Sequential(
          (0): LayerNorm((64,), eps=1e-05, elementwise_affine=True)
          (1): Linear(in_features=64, out_features=128, bias=False)
          (2): ReLU(inplace=True)
          (3): Dropout(p=0.0, inplace=False)
          (4): Linear(in_features=128, out_features=64, bias=False)
          (5): Dropout(p=0.0, inplace=False)
        )
      )
    )
  )
  (upsampling): Sequential(
    (0): Conv2d(64, 1024, kernel_size=(1, 1), stride=(1, 1), bias=False)
    (1): PixelShuffle(upscale_factor=4)
    (2): LeakyReLU(negative_slope=0.2)
    (3): Conv2d(64, 1, kernel_size=(3, 3), stride=(1, 1), padding=(1, 1), bias=False)
  )
)

Networks name: Discriminator_UNet
Params number: 4375745
Net structure:
Discriminator_UNet(
  (conv0): Conv2d(1, 64, kernel_size=(3, 3), stride=(1, 1), padding=(1, 1))
  (conv1): Conv2d(64, 128, kernel_size=(4, 4), stride=(2, 2), padding=(1, 1), bias=False)
  (conv2): Conv2d(128, 256, kernel_size=(4, 4), stride=(2, 2), padding=(1, 1), bias=False)
  (conv3): Conv2d(256, 512, kernel_size=(4, 4), stride=(2, 2), padding=(1, 1), bias=False)
  (conv4): Conv2d(512, 256, kernel_size=(3, 3), stride=(1, 1), padding=(1, 1), bias=False)
  (conv5): Conv2d(256, 128, kernel_size=(3, 3), stride=(1, 1), padding=(1, 1), bias=False)
  (conv6): Conv2d(128, 64, kernel_size=(3, 3), stride=(1, 1), padding=(1, 1), bias=False)
  (conv7): Conv2d(64, 64, kernel_size=(3, 3), stride=(1, 1), padding=(1, 1), bias=False)
  (conv8): Conv2d(64, 64, kernel_size=(3, 3), stride=(1, 1), padding=(1, 1), bias=False)
  (conv9): Conv2d(64, 1, kernel_size=(3, 3), stride=(1, 1), padding=(1, 1))
)

24-04-05 17:12:45.257 : 
 |  mean  |  min   |  max   |  std   || shape               
 |  0.000 | -0.020 |  0.020 |  0.012 | torch.Size([64, 1, 1, 3, 3]) || conv_init0.0.weight
 | -0.000 | -0.014 |  0.014 |  0.008 | torch.Size([64, 64, 1, 3, 3]) || conv_init.0.weight
 | -0.000 | -0.014 |  0.014 |  0.008 | torch.Size([64, 64, 1, 3, 3]) || conv_init.2.weight
…
