…
    E_param_strict: True
    checkpoint_test: 5000
    checkpoint_save: 5000
    checkpoint_print: 200
    G_optimizer_betas: [0.9, 0.999]
    G_scheduler_restart_weights: 1
  ]
  opt_path: options/train_convsmoe_gan.json
  is_train: True
  find_unused_parameters: True
  use_static_graph: False
  dist: False
  num_gpu: 1
  rank: 0
  world_size: 1

24-04-05 14:02:14.580 : Number of train images: 165, iters: 83
24-04-05 14:02:22.053 : 
Networks name: Autoencoder
Params number: 98324797
Net structure:
Autoencoder(
  (encoder): Encoder(
    (downsample_layers): ModuleList(
      (0): Sequential(
        (0): Conv2d(1, 128, kernel_size=(4, 4), stride=(4, 4))
        (1): LayerNorm()
      )
      (1): Sequential(
        (0): LayerNorm()
        (1): Conv2d(128, 256, kernel_size=(2, 2), stride=(2, 2))
      )
      (2): Sequential(
        (0): LayerNorm()
        (1): Conv2d(256, 512, kernel_size=(2, 2), stride=(2, 2))
      )
      (3): Sequential(
        (0): LayerNorm()
        (1): Conv2d(512, 1024, kernel_size=(2, 2), stride=(2, 2))
      )
    )
    (stages): ModuleList(
      (0): Sequential(
        (0): Block(
          (dwconv): Conv2d(128, 128, kernel_size=(7, 7), stride=(1, 1), padding=(3, 3), groups=128)
          (norm): LayerNorm()
          (pwconv1): Linear(in_features=128, out_features=512, bias=True)
          (act): GELU(approximate='none')
          (pwconv2): Linear(in_features=512, out_features=128, bias=True)
          (drop_path): Identity()
        )
        (1): Block(
          (dwconv): Conv2d(128, 128, kernel_size=(7, 7), stride=(1, 1), padding=(3, 3), groups=128)
          (norm): LayerNorm()
          (pwconv1): Linear(in_features=128, out_features=512, bias=True)
          (act): GELU(approximate='none')
          (pwconv2): Linear(in_features=512, out_features=128, bias=True)
          (drop_path): Identity()
        )
        (2): Block(
          (dwconv): Conv2d(128, 128, kernel_size=(7, 7), stride=(1, 1), padding=(3, 3), groups=128)
          (norm): LayerNorm()
          (pwconv1): Linear(in_features=128, out_features=512, bias=True)
          (act): GELU(approximate='none')
          (pwconv2): Linear(in_features=512, out_features=128, bias=True)
          (drop_path): Identity()
        )
      )
      (1): Sequential(
        (0): Block(
          (dwconv): Conv2d(256, 256, kernel_size=(7, 7), stride=(1, 1), padding=(3, 3), groups=256)
          (norm): LayerNorm()
          (pwconv1): Linear(in_features=256, out_features=1024, bias=True)
          (act): GELU(approximate='none')
          (pwconv2): Linear(in_features=1024, out_features=256, bias=True)
          (drop_path): Identity()
        )
        (1): Block(
          (dwconv): Conv2d(256, 256, kernel_size=(7, 7), stride=(1, 1), padding=(3, 3), groups=256)
          (norm): LayerNorm()
          (pwconv1): Linear(in_features=256, out_features=1024, bias=True)
          (act): GELU(approximate='none')
          (pwconv2): Linear(in_features=1024, out_features=256, bias=True)
          (drop_path): Identity()
        )
        (2): Block(
          (dwconv): Conv2d(256, 256, kernel_size=(7, 7), stride=(1, 1), padding=(3, 3), groups=256)
          (norm): LayerNorm()
          (pwconv1): Linear(in_features=256, out_features=1024, bias=True)
          (act): GELU(approximate='none')
          (pwconv2): Linear(in_features=1024, out_features=256, bias=True)
          (drop_path): Identity()
        )
      )
      (2): Sequential(
        (0): Block(
          (dwconv): Conv2d(512, 512, kernel_size=(7, 7), stride=(1, 1), padding=(3, 3), groups=512)
          (norm): LayerNorm()
          (pwconv1): Linear(in_features=512, out_features=2048, bias=True)
          (act): GELU(approximate='none')
          (pwconv2): Linear(in_features=2048, out_features=512, bias=True)
          (drop_path): Identity()
        )
        (1): Block(
          (dwconv): Conv2d(512, 512, kernel_size=(7, 7), stride=(1, 1), padding=(3, 3), groups=512)
          (norm): LayerNorm()
          (pwconv1): Linear(in_features=512, out_features=2048, bias=True)
          (act): GELU(approximate='none')
          (pwconv2): Linear(in_features=2048, out_features=512, bias=True)
          (drop_path): Identity()
        )
        (2): Block(
          (dwconv): Conv2d(512, 512, kernel_size=(7, 7), stride=(1, 1), padding=(3, 3), groups=512)
          (norm): LayerNorm()
          (pwconv1): Linear(in_features=512, out_features=2048, bias=True)
          (act): GELU(approximate='none')
          (pwconv2): Linear(in_features=2048, out_features=512, bias=True)
          (drop_path): Identity()
        )
        (3): Block(
          (dwconv): Conv2d(512, 512, kernel_size=(7, 7), stride=(1, 1), padding=(3, 3), groups=512)
          (norm): LayerNorm()
          (pwconv1): Linear(in_features=512, out_features=2048, bias=True)
          (act): GELU(approximate='none')
          (pwconv2): Linear(in_features=2048, out_features=512, bias=True)
          (drop_path): Identity()
        )
        (4): Block(
          (dwconv): Conv2d(512, 512, kernel_size=(7, 7), stride=(1, 1), padding=(3, 3), groups=512)
          (norm): LayerNorm()
          (pwconv1): Linear(in_features=512, out_features=2048, bias=True)
          (act): GELU(approximate='none')
          (pwconv2): Linear(in_features=2048, out_features=512, bias=True)
          (drop_path): Identity()
        )
        (5): Block(
          (dwconv): Conv2d(512, 512, kernel_size=(7, 7), stride=(1, 1), padding=(3, 3), groups=512)
          (norm): LayerNorm()
          (pwconv1): Linear(in_features=512, out_features=2048, bias=True)
          (act): GELU(approximate='none')
          (pwconv2): Linear(in_features=2048, out_features=512, bias=True)
          (drop_path): Identity()
        )
        (6): Block(
          (dwconv): Conv2d(512, 512, kernel_size=(7, 7), stride=(1, 1), padding=(3, 3), groups=512)
          (norm): LayerNorm()
          (pwconv1): Linear(in_features=512, out_features=2048, bias=True)
          (act): GELU(approximate='none')
          (pwconv2): Linear(in_features=2048, out_features=512, bias=True)
          (drop_path): Identity()
        )
        (7): Block(
          (dwconv): Conv2d(512, 512, kernel_size=(7, 7), stride=(1, 1), padding=(3, 3), groups=512)
          (norm): LayerNorm()
          (pwconv1): Linear(in_features=512, out_features=2048, bias=True)
          (act): GELU(approximate='none')
          (pwconv2): Linear(in_features=2048, out_features=512, bias=True)
          (drop_path): Identity()
        )
        (8): Block(
          (dwconv): Conv2d(512, 512, kernel_size=(7, 7), stride=(1, 1), padding=(3, 3), groups=512)
          (norm): LayerNorm()
          (pwconv1): Linear(in_features=512, out_features=2048, bias=True)
          (act): GELU(approximate='none')
          (pwconv2): Linear(in_features=2048, out_features=512, bias=True)
          (drop_path): Identity()
        )
        (9): Block(
          (dwconv): Conv2d(512, 512, kernel_size=(7, 7), stride=(1, 1), padding=(3, 3), groups=512)
          (norm): LayerNorm()
          (pwconv1): Linear(in_features=512, out_features=2048, bias=True)
          (act): GELU(approximate='none')
          (pwconv2): Linear(in_features=2048, out_features=512, bias=True)
          (drop_path): Identity()
        )
        (10): Block(
          (dwconv): Conv2d(512, 512, kernel_size=(7, 7), stride=(1, 1), padding=(3, 3), groups=512)
          (norm): LayerNorm()
          (pwconv1): Linear(in_features=512, out_features=2048, bias=True)
          (act): GELU(approximate='none')
          (pwconv2): Linear(in_features=2048, out_features=512, bias=True)
          (drop_path): Identity()
        )
        (11): Block(
          (dwconv): Conv2d(512, 512, kernel_size=(7, 7), stride=(1, 1), padding=(3, 3), groups=512)
          (norm): LayerNorm()
          (pwconv1): Linear(in_features=512, out_features=2048, bias=True)
          (act): GELU(approximate='none')
          (pwconv2): Linear(in_features=2048, out_features=512, bias=True)
          (drop_path): Identity()
        )
        (12): Block(
          (dwconv): Conv2d(512, 512, kernel_size=(7, 7), stride=(1, 1), padding=(3, 3), groups=512)
          (norm): LayerNorm()
          (pwconv1): Linear(in_features=512, out_features=2048, bias=True)
          (act): GELU(approximate='none')
          (pwconv2): Linear(in_features=2048, out_features=512, bias=True)
          (drop_path): Identity()
        )
        (13): Block(
          (dwconv): Conv2d(512, 512, kernel_size=(7, 7), stride=(1, 1), padding=(3, 3), groups=512)
          (norm): LayerNorm()
          (pwconv1): Linear(in_features=512, out_features=2048, bias=True)
          (act): GELU(approximate='none')
          (pwconv2): Linear(in_features=2048, out_features=512, bias=True)
          (drop_path): Identity()
        )
        (14): Block(
          (dwconv): Conv2d(512, 512, kernel_size=(7, 7), stride=(1, 1), padding=(3, 3), groups=512)
          (norm): LayerNorm()
          (pwconv1): Linear(in_features=512, out_features=2048, bias=True)
          (act): GELU(approximate='none')
          (pwconv2): Linear(in_features=2048, out_features=512, bias=True)
          (drop_path): Identity()
        )
        (15): Block(
          (dwconv): Conv2d(512, 512, kernel_size=(7, 7), stride=(1, 1), padding=(3, 3), groups=512)
          (norm): LayerNorm()
          (pwconv1): Linear(in_features=512, out_features=2048, bias=True)
          (act): GELU(approximate='none')
          (pwconv2): Linear(in_features=2048, out_features=512, bias=True)
          (drop_path): Identity()
        )
        (16): Block(
          (dwconv): Conv2d(512, 512, kernel_size=(7, 7), stride=(1, 1), padding=(3, 3), groups=512)
          (norm): LayerNorm()
          (pwconv1): Linear(in_features=512, out_features=2048, bias=True)
          (act): GELU(approximate='none')
          (pwconv2): Linear(in_features=2048, out_features=512, bias=True)
          (drop_path): Identity()
        )
        (17): Block(
          (dwconv): Conv2d(512, 512, kernel_size=(7, 7), stride=(1, 1), padding=(3, 3), groups=512)
          (norm): LayerNorm()
          (pwconv1): Linear(in_features=512, out_features=2048, bias=True)
          (act): GELU(approximate='none')
          (pwconv2): Linear(in_features=2048, out_features=512, bias=True)
          (drop_path): Identity()
        )
        (18): Block(
          (dwconv): Conv2d(512, 512, kernel_size=(7, 7), stride=(1, 1), padding=(3, 3), groups=512)
          (norm): LayerNorm()
          (pwconv1): Linear(in_features=512, out_features=2048, bias=True)
          (act): GELU(approximate='none')
          (pwconv2): Linear(in_features=2048, out_features=512, bias=True)
          (drop_path): Identity()
        )
        (19): Block(
          (dwconv): Conv2d(512, 512, kernel_size=(7, 7), stride=(1, 1), padding=(3, 3), groups=512)
          (norm): LayerNorm()
          (pwconv1): Linear(in_features=512, out_features=2048, bias=True)
          (act): GELU(approximate='none')
          (pwconv2): Linear(in_features=2048, out_features=512, bias=True)
          (drop_path): Identity()
        )
        (20): Block(
          (dwconv): Conv2d(512, 512, kernel_size=(7, 7), stride=(1, 1), padding=(3, 3), groups=512)
          (norm): LayerNorm()
          (pwconv1): Linear(in_features=512, out_features=2048, bias=True)
          (act): GELU(approximate='none')
          (pwconv2): Linear(in_features=2048, out_features=512, bias=True)
          (drop_path): Identity()
        )
        (21): Block(
          (dwconv): Conv2d(512, 512, kernel_size=(7, 7), stride=(1, 1), padding=(3, 3), groups=512)
          (norm): LayerNorm()
          (pwconv1): Linear(in_features=512, out_features=2048, bias=True)
          (act): GELU(approximate='none')
          (pwconv2): Linear(in_features=2048, out_features=512, bias=True)
          (drop_path): Identity()
        )
        (22): Block(
          (dwconv): Conv2d(512, 512, kernel_size=(7, 7), stride=(1, 1), padding=(3, 3), groups=512)
          (norm): LayerNorm()
          (pwconv1): Linear(in_features=512, out_features=2048, bias=True)
          (act): GELU(approximate='none')
          (pwconv2): Linear(in_features=2048, out_features=512, bias=True)
          (drop_path): Identity()
        )
        (23): Block(
          (dwconv): Conv2d(512, 512, kernel_size=(7, 7), stride=(1, 1), padding=(3, 3), groups=512)
          (norm): LayerNorm()
          (pwconv1): Linear(in_features=512, out_features=2048, bias=True)
          (act): GELU(approximate='none')
          (pwconv2): Linear(in_features=2048, out_features=512, bias=True)
          (drop_path): Identity()
        )
        (24): Block(
          (dwconv): Conv2d(512, 512, kernel_size=(7, 7), stride=(1, 1), padding=(3, 3), groups=512)
          (norm): LayerNorm()
          (pwconv1): Linear(in_features=512, out_features=2048, bias=True)
          (act): GELU(approximate='none')
          (pwconv2): Linear(in_features=2048, out_features=512, bias=True)
          (drop_path): Identity()
        )
        (25): Block(
          (dwconv): Conv2d(512, 512, kernel_size=(7, 7), stride=(1, 1), padding=(3, 3), groups=512)
          (norm): LayerNorm()
          (pwconv1): Linear(in_features=512, out_features=2048, bias=True)
          (act): GELU(approximate='none')
          (pwconv2): Linear(in_features=2048, out_features=512, bias=True)
          (drop_path): Identity()
        )
        (26): Block(
          (dwconv): Conv2d(512, 512, kernel_size=(7, 7), stride=(1, 1), padding=(3, 3), groups=512)
          (norm): LayerNorm()
          (pwconv1): Linear(in_features=512, out_features=2048, bias=True)
          (act): GELU(approximate='none')
          (pwconv2): Linear(in_features=2048, out_features=512, bias=True)
          (drop_path): Identity()
        )
      )
      (3): Sequential(
        (0): Block(
          (dwconv): Conv2d(1024, 1024, kernel_size=(7, 7), stride=(1, 1), padding=(3, 3), groups=1024)
          (norm): LayerNorm()
          (pwconv1): Linear(in_features=1024, out_features=4096, bias=True)
          (act): GELU(approximate='none')
          (pwconv2): Linear(in_features=4096, out_features=1024, bias=True)
          (drop_path): Identity()
        )
        (1): Block(
          (dwconv): Conv2d(1024, 1024, kernel_size=(7, 7), stride=(1, 1), padding=(3, 3), groups=1024)
          (norm): LayerNorm()
          (pwconv1): Linear(in_features=1024, out_features=4096, bias=True)
          (act): GELU(approximate='none')
          (pwconv2): Linear(in_features=4096, out_features=1024, bias=True)
          (drop_path): Identity()
        )
        (2): Block(
          (dwconv): Conv2d(1024, 1024, kernel_size=(7, 7), stride=(1, 1), padding=(3, 3), groups=1024)
          (norm): LayerNorm()
          (pwconv1): Linear(in_features=1024, out_features=4096, bias=True)
          (act): GELU(approximate='none')
          (pwconv2): Linear(in_features=4096, out_features=1024, bias=True)
          (drop_path): Identity()
        )
      )
    )
    (norm): LayerNorm((1024,), eps=1e-06, elementwise_affine=True)
    (fc): ForwardPool(
      (layers): Sequential(
        (0): Linear(in_features=1024, out_features=2048, bias=True)
        (1): BatchNorm1d(2048, eps=1e-05, momentum=0.1, affine=True, track_running_stats=True)
        (2): SELU()
        (3): Dropout(p=0.0, inplace=False)
        (4): Linear(in_features=2048, out_features=4096, bias=True)
        (5): BatchNorm1d(4096, eps=1e-05, momentum=0.1, affine=True, track_running_stats=True)
        (6): SELU()
        (7): Dropout(p=0.0, inplace=False)
        (8): Linear(in_features=4096, out_features=63, bias=True)
        (9): BatchNorm1d(63, eps=1e-05, momentum=0.1, affine=True, track_running_stats=True)
        (10): SELU()
        (11): Dropout(p=0.0, inplace=False)
      )
    )
  )
  (decoder): Decoder()
)

Networks name: Discriminator_UNet
Params number: 4375745
Net structure:
Discriminator_UNet(
  (conv0): Conv2d(1, 64, kernel_size=(3, 3), stride=(1, 1), padding=(1, 1))
  (conv1): Conv2d(64, 128, kernel_size=(4, 4), stride=(2, 2), padding=(1, 1), bias=False)
  (conv2): Conv2d(128, 256, kernel_size=(4, 4), stride=(2, 2), padding=(1, 1), bias=False)
  (conv3): Conv2d(256, 512, kernel_size=(4, 4), stride=(2, 2), padding=(1, 1), bias=False)
  (conv4): Conv2d(512, 256, kernel_size=(3, 3), stride=(1, 1), padding=(1, 1), bias=False)
  (conv5): Conv2d(256, 128, kernel_size=(3, 3), stride=(1, 1), padding=(1, 1), bias=False)
  (conv6): Conv2d(128, 64, kernel_size=(3, 3), stride=(1, 1), padding=(1, 1), bias=False)
  (conv7): Conv2d(64, 64, kernel_size=(3, 3), stride=(1, 1), padding=(1, 1), bias=False)
  (conv8): Conv2d(64, 64, kernel_size=(3, 3), stride=(1, 1), padding=(1, 1), bias=False)
  (conv9): Conv2d(64, 1, kernel_size=(3, 3), stride=(1, 1), padding=(1, 1))
)

24-04-05 14:02:22.209 : 
 |  mean  |  min   |  max   |  std   || shape               
 | -0.001 | -0.072 |  0.067 |  0.020 | torch.Size([128, 1, 4, 4]) || encoder.downsample_layers.0.0.weight
 |  0.000 |  0.000 |  0.000 |  0.000 | torch.Size([128]) || encoder.downsample_layers.0.0.bias
 |  1.000 |  1.000 |  1.000 |  0.000 | torch.Size([128]) || encoder.downsample_layers.0.1.weight
…
